assets/diabetes_prediction_model.tflite (tflite, 2944 bytes, 5 tensors)

sequential/dense_1/BiasAdd/ReadVariableOp f4 [8]
0.0 0.0 0.0 0.0 -1.1376389 1.1278051 -0.040047366 -0.034152847
00000000: 0000 0000 0000 0000 0000 0000 0000 0000
00000010: 279e 91bf eb5b 903f b508 24bd dbe3 0bbd

sequential/dense/BiasAdd/ReadVariableOp f4 [12]
0.94972646 -0.98219585 0.0 0.0 0.0 -0.0018391706 -1.1372533 1.062023
1.1040734 -1.1910173 0.0 -1.1599094
00000000: 4621 733f 3071 7bbf 0000 0000 0000 0000
00000010: 0000 0000 5310 f1ba 8491 91bf 5ff0 873f
00000020: 4752 8d3f 4173 98bf 0000 0000 e977 94bf

sequential/dense/MatMul f4 [12, 8]
0.09011901 0.32273805 0.24179907 0.1638784 -0.062897846 -0.2913484 -1.4440651 -0.15644577
0.6004108 0.16718441 -0.22090198 0.44389436 0.03116989 -0.3855789 1.1737101 -0.022456538
-0.43076187 0.054332376 -0.17965958 -0.3697511 -0.25836018 0.078520775 -0.0015330911 -0.3507747
-0.18886662 -0.35498965 -0.028769672 0.23868799 -0.1886467 0.15730876 0.017808676 0.42285705
0.38999516 -0.48572263 0.1430462 0.14835507 -0.119594544 -0.5277375 -0.43689045 0.21868807
0.39681664 -0.61472213 0.13943486 -0.56841683 0.15205659 -0.16592509 -0.24013299 0.4107457
0.6897367 0.26753286 0.22490126 0.10233157 -0.09846068 0.07916287 0.81920385 -0.2062956
-0.07632387 0.24590576 0.27364394 0.5461947 -0.31981236 0.3091805 -0.22573422 -0.4343938
-0.11876479 0.4244732 0.29458183 0.19817284 0.26045436 0.12440522 -1.0203755 0.08025315
0.7255168 0.40936914 -0.1293253 0.04466266 -0.1855504 0.266311 0.119878836 -0.43245816
-0.47659054 -0.40098011 0.4064114 -0.3932965 -0.27912083 -0.40904886 0.16708142 0.15563399
0.027076846 0.18108082 0.119853355 -0.024534754 0.14099258 0.52709377 0.5889103 0.20086855
00000000: 5190 b83d ec3d a53e 2d9a 773e bdcf 273e
00000010: 96d0 80bd 9e2b 95be 20d7 b8bf 5233 20be
00000020: 86b4 193f 6432 2b3e 2134 62be 1f46 e33e
00000030: ff57 ff3c 996a c5be 223c 963f c6f6 b7bc
00000040: d28c dcbe a08b 5e3d aef8 37be 0450 bdbe
00000050: c947 84be 80cf a03d 00f2 c8ba be98 b3be
00000060: 4066 41be 34c1 b5be 60ae ebbc a06a 743e
00000070: 9a2c 41be 8c15 213e 80e3 913c b880 d83e
00000080: 72ad c73e a3b0 f8be b47a 123e 64ea 173e
00000090: fced f4bd ce19 07bf 1bb0 dfbe c4ef 5f3e
000000a0: 8d2b cb3e 6e5e 1dbf 03c8 0e3e c483 11bf
000000b0: b9b4 1b3e 44e8 29be 6ce5 75be 434d d23e
000000c0: 9692 303f 11fa 883e 844c 663e 3793 d13d
000000d0: c1a5 c9bd 2520 a23d 58b7 513f 273f 53be
000000e0: b04f 9cbd b8ce 7b3e 0f1b 8c3e 6ad3 0b3f
000000f0: 72be a3be e84c 9e3e df26 67be dd68 debe
00000100: f43a f3bd 8d54 d93e 6ed3 963e d2ed 4a3e
00000110: 465a 853e 2ac8 fe3d aa9b 82bf c35b a43d
00000120: 78bb 393f d598 d13e da6d 04be 32f0 363d
00000130: ed00 3ebe ea59 883e 0983 f53d 286b ddbe
00000140: ad03 f4be 444d cdbe 2815 d03e 295e c9be
00000150: ede8 8ebe da6e d1be 6417 2b3e 845e 1f3e
00000160: 43d0 dd3c 406d 393e ad75 f53d 1cfd c8bc
00000170: 5c60 103e 9eef 063f d3c2 163f 7cb0 4d3e

sequential/dense_1/MatMul f4 [8, 12]
-0.19039083 0.28633916 0.34214664 0.108193755 -0.19400653 0.21518636 -0.4697458 -0.45435297
0.12002027 -0.35206008 0.322595 -0.4931503 -0.4324352 -0.29256988 0.3284943 0.4634055
0.07642764 0.47677732 0.059713602 0.28946984 -0.31467044 0.011525214 -0.3416183 -0.25328544
-0.37657404 -0.42470968 0.109235466 -0.48022738 0.1480248 0.2503574 0.16471517 -0.3918923
-0.47295445 -0.34935117 -0.1572679 -0.47859088 0.1695674 -0.42326537 -0.052663624 -0.3301846
-0.48243615 0.16441888 -0.53014123 -0.1033555 0.25432724 -0.2444503 -0.2511779 -0.4773721
0.22638848 0.24482067 0.17547792 0.2196014 -0.5268461 0.3623076 -0.010516281 -0.025176033
-0.3310994 0.29688603 0.15241075 0.54019076 0.36727318 0.049099587 0.5281167 -0.53330916
0.36027777 -0.13098711 -0.0967429 0.1049226 -0.31513608 0.15507488 -0.46951073 0.49332184
-0.14252377 0.43069476 0.4495237 0.2790802 -0.2984497 0.08508372 0.48643172 0.24711266
-0.2344146 -0.0077253827 -0.5317614 -0.4780529 -0.23233426 0.11008483 -0.46463722 0.052838087
-0.2939256 -0.09040868 0.114843644 0.26357755 -0.0015990149 -0.12136995 -0.43170327 -0.2881208
00000000: d0f5 42be 0c9b 923e d82d af3e b094 dd3d
00000010: a6a9 46be d059 5c3e 8682 f0be f4a0 e8be
00000020: 30cd f53d 3841 b4be 2c2b a53e 327e fcbe
00000030: 2668 ddbe b8cb 95be 6830 a83e 7c43 ed3e
00000040: 1886 9c3d 281c f43e 4096 743d 6435 943e
00000050: 7c1c a1be 40d4 3c3c 98e8 aebe a1ae 81be
00000060: 50ce c0be 8c73 d9be d8b6 df3d 5de0 f5be
00000070: d093 173e d82e 803e 18ab 283e 1ca6 c8be
00000080: 1627 f2be 28de b2be d60a 21be dd09 f5be
00000090: 14a3 2d3e 3db6 d8be d0b5 57bd f50d a9be
000000a0: df01 f7be 6c5d 283e 56b7 07bf 0cac d3bd
000000b0: 2e37 823e 2e51 7abe 649a 80be 1e6a f4be
000000c0: 62d2 673e 45b2 7a3e 7cb0 333e 30df 603e
000000d0: 63df 06bf 6280 b93e 7b4c 2cbc f83d cebc
000000e0: dc85 a9be 7201 983e 9011 1c3e f149 0a3f
000000f0: 3b0b bc3e a61c 493d a832 073f f386 08bf
00000100: 5476 b83e 7c21 06be 2421 c6bd a9e1 d63d
00000110: 8459 a1be f3cb 1e3e b663 f0be ae94 fc3e
00000120: c0f1 11be 0684 dc3e f827 e63e 9ae3 8e3e
00000130: 66ce 98be 6040 ae3d 940d f93e 1a0b 7d3e
00000140: 620a 70be 3525 fdbb 8421 08bf 5ac3 f4be
00000150: 08e9 6dbe 2874 e13d eee4 edbe c06c 583d
00000160: 6b7d 96be 3028 b9bd 2533 eb3d a3f3 863e
00000170: 0996 d1ba cf90 f8bd 3608 ddbe 9284 93be

sequential/dense_2/MatMul f4 [1, 8]
0.4549359 -0.49671224 -0.37230033 0.14283389 0.43016434 -0.30675483 -0.7240738 -0.36997083
00000000: 5ced e83e 1151 febe 269e bebe 0c43 123e
00000010: 803e dc3e f80e 9dbe e75c 39bf d16c bdbe
